2026-05-26 18:26:39 [D:\denoiser-main\trainer.py:187 - INFO ] Create optimizer adam: {'lr': 0.001, 'weight_decay': 1e-05}
2026-05-26 18:26:39 [D:\denoiser-main\trainer.py:153 - INFO ] Model summary:
MS_SL2_split_model(
  (encoder_1d): Conv1D(1, 512, kernel_size=(16,), stride=(8,))
  (a): Conv1d(512, 257, kernel_size=(1,), stride=(1,))
  (ln): ChannelWiseLayerNorm((512,), eps=1e-05, elementwise_affine=True)
  (proj): Conv1D(512, 256, kernel_size=(1,), stride=(1,))
  (slices): Sequential(
    (0): Sequential(
      (0): Sequential(
        (0): Conv1DBlock(
          (conv1x1): Conv1D(256, 512, kernel_size=(1,), stride=(1,))
          (prelu1): PReLU(num_parameters=1)
          (lnorm1): GlobalChannelLayerNorm(512, eps=1e-05, elementwise_affine=True)
          (shuffgroupconv): Conv1d(512, 256, kernel_size=(3,), stride=(1,), padding=(1,))
          (tanh1): Tanh()
          (dconv): Conv1d(512, 512, kernel_size=(3,), stride=(1,), padding=(1,), groups=512)
          (shuffgroup): ChannelShuffle()
          (conv1x1_2): Conv1D(512, 256, kernel_size=(1,), stride=(1,))
          (sigmoid1): Sigmoid()
          (prelu2): PReLU(num_parameters=1)
          (lnorm2): GlobalChannelLayerNorm(512, eps=1e-05, elementwise_affine=True)
          (sconv): Conv1d(512, 256, kernel_size=(1,), stride=(1,))
          (skip_out): Conv1d(512, 256, kernel_size=(1,), stride=(1,))
        )
        (1): Conv1DBlock(
          (conv1x1): Conv1D(256, 512, kernel_size=(1,), stride=(1,))
          (prelu1): PReLU(num_parameters=1)
          (lnorm1): GlobalChannelLayerNorm(512, eps=1e-05, elementwise_affine=True)
          (shuffgroupconv): Conv1d(512, 256, kernel_size=(3,), stride=(1,), padding=(2,), dilation=(2,), groups=2)
          (tanh1): Tanh()
          (dconv): Conv1d(512, 512, kernel_size=(3,), stride=(1,), padding=(2,), dilation=(2,), groups=512)
          (shuffgroup): ChannelShuffle()
          (conv1x1_2): Conv1D(512, 256, kernel_size=(1,), stride=(1,))
          (sigmoid1): Sigmoid()
          (prelu2): PReLU(num_parameters=1)
          (lnorm2): GlobalChannelLayerNorm(512, eps=1e-05, elementwise_affine=True)
          (sconv): Conv1d(512, 256, kernel_size=(1,), stride=(1,))
          (skip_out): Conv1d(512, 256, kernel_size=(1,), stride=(1,))
        )
        (2): Conv1DBlock(
          (conv1x1): Conv1D(256, 512, kernel_size=(1,), stride=(1,))
          (prelu1): PReLU(num_parameters=1)
          (lnorm1): GlobalChannelLayerNorm(512, eps=1e-05, elementwise_affine=True)
          (shuffgroupconv): Conv1d(512, 256, kernel_size=(3,), stride=(1,), padding=(4,), dilation=(4,), groups=4)
          (tanh1): Tanh()
          (dconv): Conv1d(512, 512, kernel_size=(3,), stride=(1,), padding=(4,), dilation=(4,), groups=512)
          (shuffgroup): ChannelShuffle()
          (conv1x1_2): Conv1D(512, 256, kernel_size=(1,), stride=(1,))
          (sigmoid1): Sigmoid()
          (prelu2): PReLU(num_parameters=1)
          (lnorm2): GlobalChannelLayerNorm(512, eps=1e-05, elementwise_affine=True)
          (sconv): Conv1d(512, 256, kernel_size=(1,), stride=(1,))
          (skip_out): Conv1d(512, 256, kernel_size=(1,), stride=(1,))
        )
        (3): Conv1DBlock(
          (conv1x1): Conv1D(256, 512, kernel_size=(1,), stride=(1,))
          (prelu1): PReLU(num_parameters=1)
          (lnorm1): GlobalChannelLayerNorm(512, eps=1e-05, elementwise_affine=True)
          (shuffgroupconv): Conv1d(512, 256, kernel_size=(3,), stride=(1,), padding=(8,), dilation=(8,), groups=8)
          (tanh1): Tanh()
          (dconv): Conv1d(512, 512, kernel_size=(3,), stride=(1,), padding=(8,), dilation=(8,), groups=512)
          (shuffgroup): ChannelShuffle()
          (conv1x1_2): Conv1D(512, 256, kernel_size=(1,), stride=(1,))
          (sigmoid1): Sigmoid()
          (prelu2): PReLU(num_parameters=1)
          (lnorm2): GlobalChannelLayerNorm(512, eps=1e-05, elementwise_affine=True)
          (sconv): Conv1d(512, 256, kernel_size=(1,), stride=(1,))
          (skip_out): Conv1d(512, 256, kernel_size=(1,), stride=(1,))
        )
        (4): Conv1DBlock(
          (conv1x1): Conv1D(256, 512, kernel_size=(1,), stride=(1,))
          (prelu1): PReLU(num_parameters=1)
          (lnorm1): GlobalChannelLayerNorm(512, eps=1e-05, elementwise_affine=True)
          (shuffgroupconv): Conv1d(512, 256, kernel_size=(3,), stride=(1,), padding=(16,), dilation=(16,), groups=16)
          (tanh1): Tanh()
          (dconv): Conv1d(512, 512, kernel_size=(3,), stride=(1,), padding=(16,), dilation=(16,), groups=512)
          (shuffgroup): ChannelShuffle()
          (conv1x1_2): Conv1D(512, 256, kernel_size=(1,), stride=(1,))
          (sigmoid1): Sigmoid()
          (prelu2): PReLU(num_parameters=1)
          (lnorm2): GlobalChannelLayerNorm(512, eps=1e-05, elementwise_affine=True)
          (sconv): Conv1d(512, 256, kernel_size=(1,), stride=(1,))
          (skip_out): Conv1d(512, 256, kernel_size=(1,), stride=(1,))
        )
        (5): Conv1DBlock(
          (conv1x1): Conv1D(256, 512, kernel_size=(1,), stride=(1,))
          (prelu1): PReLU(num_parameters=1)
          (lnorm1): GlobalChannelLayerNorm(512, eps=1e-05, elementwise_affine=True)
          (shuffgroupconv): Conv1d(512, 256, kernel_size=(3,), stride=(1,), padding=(32,), dilation=(32,), groups=32)
          (tanh1): Tanh()
          (dconv): Conv1d(512, 512, kernel_size=(3,), stride=(1,), padding=(32,), dilation=(32,), groups=512)
          (shuffgroup): ChannelShuffle()
          (conv1x1_2): Conv1D(512, 256, kernel_size=(1,), stride=(1,))
          (sigmoid1): Sigmoid()
          (prelu2): PReLU(num_parameters=1)
          (lnorm2): GlobalChannelLayerNorm(512, eps=1e-05, elementwise_affine=True)
          (sconv): Conv1d(512, 256, kernel_size=(1,), stride=(1,))
          (skip_out): Conv1d(512, 256, kernel_size=(1,), stride=(1,))
        )
        (6): Conv1DBlock(
          (conv1x1): Conv1D(256, 512, kernel_size=(1,), stride=(1,))
          (prelu1): PReLU(num_parameters=1)
          (lnorm1): GlobalChannelLayerNorm(512, eps=1e-05, elementwise_affine=True)
          (shuffgroupconv): Conv1d(512, 256, kernel_size=(3,), stride=(1,), padding=(64,), dilation=(64,), groups=64)
          (tanh1): Tanh()
          (dconv): Conv1d(512, 512, kernel_size=(3,), stride=(1,), padding=(64,), dilation=(64,), groups=512)
          (shuffgroup): ChannelShuffle()
          (conv1x1_2): Conv1D(512, 256, kernel_size=(1,), stride=(1,))
          (sigmoid1): Sigmoid()
          (prelu2): PReLU(num_parameters=1)
          (lnorm2): GlobalChannelLayerNorm(512, eps=1e-05, elementwise_affine=True)
          (sconv): Conv1d(512, 256, kernel_size=(1,), stride=(1,))
          (skip_out): Conv1d(512, 256, kernel_size=(1,), stride=(1,))
        )
        (7): Conv1DBlock(
          (conv1x1): Conv1D(256, 512, kernel_size=(1,), stride=(1,))
          (prelu1): PReLU(num_parameters=1)
          (lnorm1): GlobalChannelLayerNorm(512, eps=1e-05, elementwise_affine=True)
          (shuffgroupconv): Conv1d(512, 256, kernel_size=(3,), stride=(1,), padding=(128,), dilation=(128,), groups=128)
          (tanh1): Tanh()
          (dconv): Conv1d(512, 512, kernel_size=(3,), stride=(1,), padding=(128,), dilation=(128,), groups=512)
          (shuffgroup): ChannelShuffle()
          (conv1x1_2): Conv1D(512, 256, kernel_size=(1,), stride=(1,))
          (sigmoid1): Sigmoid()
          (prelu2): PReLU(num_parameters=1)
          (lnorm2): GlobalChannelLayerNorm(512, eps=1e-05, elementwise_affine=True)
          (sconv): Conv1d(512, 256, kernel_size=(1,), stride=(1,))
          (skip_out): Conv1d(512, 256, kernel_size=(1,), stride=(1,))
        )
      )
      (1): Sequential(
        (0): Conv1DBlock(
          (conv1x1): Conv1D(256, 512, kernel_size=(1,), stride=(1,))
          (prelu1): PReLU(num_parameters=1)
          (lnorm1): GlobalChannelLayerNorm(512, eps=1e-05, elementwise_affine=True)
          (shuffgroupconv): Conv1d(512, 256, kernel_size=(3,), stride=(1,), padding=(1,))
          (tanh1): Tanh()
          (dconv): Conv1d(512, 512, kernel_size=(3,), stride=(1,), padding=(1,), groups=512)
          (shuffgroup): ChannelShuffle()
          (conv1x1_2): Conv1D(512, 256, kernel_size=(1,), stride=(1,))
          (sigmoid1): Sigmoid()
          (prelu2): PReLU(num_parameters=1)
          (lnorm2): GlobalChannelLayerNorm(512, eps=1e-05, elementwise_affine=True)
          (sconv): Conv1d(512, 256, kernel_size=(1,), stride=(1,))
          (skip_out): Conv1d(512, 256, kernel_size=(1,), stride=(1,))
        )
        (1): Conv1DBlock(
          (conv1x1): Conv1D(256, 512, kernel_size=(1,), stride=(1,))
          (prelu1): PReLU(num_parameters=1)
          (lnorm1): GlobalChannelLayerNorm(512, eps=1e-05, elementwise_affine=True)
          (shuffgroupconv): Conv1d(512, 256, kernel_size=(3,), stride=(1,), padding=(2,), dilation=(2,), groups=2)
          (tanh1): Tanh()
          (dconv): Conv1d(512, 512, kernel_size=(3,), stride=(1,), padding=(2,), dilation=(2,), groups=512)
          (shuffgroup): ChannelShuffle()
          (conv1x1_2): Conv1D(512, 256, kernel_size=(1,), stride=(1,))
          (sigmoid1): Sigmoid()
          (prelu2): PReLU(num_parameters=1)
          (lnorm2): GlobalChannelLayerNorm(512, eps=1e-05, elementwise_affine=True)
          (sconv): Conv1d(512, 256, kernel_size=(1,), stride=(1,))
          (skip_out): Conv1d(512, 256, kernel_size=(1,), stride=(1,))
        )
        (2): Conv1DBlock(
          (conv1x1): Conv1D(256, 512, kernel_size=(1,), stride=(1,))
          (prelu1): PReLU(num_parameters=1)
          (lnorm1): GlobalChannelLayerNorm(512, eps=1e-05, elementwise_affine=True)
          (shuffgroupconv): Conv1d(512, 256, kernel_size=(3,), stride=(1,), padding=(4,), dilation=(4,), groups=4)
          (tanh1): Tanh()
          (dconv): Conv1d(512, 512, kernel_size=(3,), stride=(1,), padding=(4,), dilation=(4,), groups=512)
          (shuffgroup): ChannelShuffle()
          (conv1x1_2): Conv1D(512, 256, kernel_size=(1,), stride=(1,))
          (sigmoid1): Sigmoid()
          (prelu2): PReLU(num_parameters=1)
          (lnorm2): GlobalChannelLayerNorm(512, eps=1e-05, elementwise_affine=True)
          (sconv): Conv1d(512, 256, kernel_size=(1,), stride=(1,))
          (skip_out): Conv1d(512, 256, kernel_size=(1,), stride=(1,))
        )
        (3): Conv1DBlock(
          (conv1x1): Conv1D(256, 512, kernel_size=(1,), stride=(1,))
          (prelu1): PReLU(num_parameters=1)
          (lnorm1): GlobalChannelLayerNorm(512, eps=1e-05, elementwise_affine=True)
          (shuffgroupconv): Conv1d(512, 256, kernel_size=(3,), stride=(1,), padding=(8,), dilation=(8,), groups=8)
          (tanh1): Tanh()
          (dconv): Conv1d(512, 512, kernel_size=(3,), stride=(1,), padding=(8,), dilation=(8,), groups=512)
          (shuffgroup): ChannelShuffle()
          (conv1x1_2): Conv1D(512, 256, kernel_size=(1,), stride=(1,))
          (sigmoid1): Sigmoid()
          (prelu2): PReLU(num_parameters=1)
          (lnorm2): GlobalChannelLayerNorm(512, eps=1e-05, elementwise_affine=True)
          (sconv): Conv1d(512, 256, kernel_size=(1,), stride=(1,))
          (skip_out): Conv1d(512, 256, kernel_size=(1,), stride=(1,))
        )
        (4): Conv1DBlock(
          (conv1x1): Conv1D(256, 512, kernel_size=(1,), stride=(1,))
          (prelu1): PReLU(num_parameters=1)
          (lnorm1): GlobalChannelLayerNorm(512, eps=1e-05, elementwise_affine=True)
          (shuffgroupconv): Conv1d(512, 256, kernel_size=(3,), stride=(1,), padding=(16,), dilation=(16,), groups=16)
          (tanh1): Tanh()
          (dconv): Conv1d(512, 512, kernel_size=(3,), stride=(1,), padding=(16,), dilation=(16,), groups=512)
          (shuffgroup): ChannelShuffle()
          (conv1x1_2): Conv1D(512, 256, kernel_size=(1,), stride=(1,))
          (sigmoid1): Sigmoid()
          (prelu2): PReLU(num_parameters=1)
          (lnorm2): GlobalChannelLayerNorm(512, eps=1e-05, elementwise_affine=True)
          (sconv): Conv1d(512, 256, kernel_size=(1,), stride=(1,))
          (skip_out): Conv1d(512, 256, kernel_size=(1,), stride=(1,))
        )
        (5): Conv1DBlock(
          (conv1x1): Conv1D(256, 512, kernel_size=(1,), stride=(1,))
          (prelu1): PReLU(num_parameters=1)
          (lnorm1): GlobalChannelLayerNorm(512, eps=1e-05, elementwise_affine=True)
          (shuffgroupconv): Conv1d(512, 256, kernel_size=(3,), stride=(1,), padding=(32,), dilation=(32,), groups=32)
          (tanh1): Tanh()
          (dconv): Conv1d(512, 512, kernel_size=(3,), stride=(1,), padding=(32,), dilation=(32,), groups=512)
          (shuffgroup): ChannelShuffle()
          (conv1x1_2): Conv1D(512, 256, kernel_size=(1,), stride=(1,))
          (sigmoid1): Sigmoid()
          (prelu2): PReLU(num_parameters=1)
          (lnorm2): GlobalChannelLayerNorm(512, eps=1e-05, elementwise_affine=True)
          (sconv): Conv1d(512, 256, kernel_size=(1,), stride=(1,))
          (skip_out): Conv1d(512, 256, kernel_size=(1,), stride=(1,))
        )
        (6): Conv1DBlock(
          (conv1x1): Conv1D(256, 512, kernel_size=(1,), stride=(1,))
          (prelu1): PReLU(num_parameters=1)
          (lnorm1): GlobalChannelLayerNorm(512, eps=1e-05, elementwise_affine=True)
          (shuffgroupconv): Conv1d(512, 256, kernel_size=(3,), stride=(1,), padding=(64,), dilation=(64,), groups=64)
          (tanh1): Tanh()
          (dconv): Conv1d(512, 512, kernel_size=(3,), stride=(1,), padding=(64,), dilation=(64,), groups=512)
          (shuffgroup): ChannelShuffle()
          (conv1x1_2): Conv1D(512, 256, kernel_size=(1,), stride=(1,))
          (sigmoid1): Sigmoid()
          (prelu2): PReLU(num_parameters=1)
          (lnorm2): GlobalChannelLayerNorm(512, eps=1e-05, elementwise_affine=True)
          (sconv): Conv1d(512, 256, kernel_size=(1,), stride=(1,))
          (skip_out): Conv1d(512, 256, kernel_size=(1,), stride=(1,))
        )
        (7): Conv1DBlock(
          (conv1x1): Conv1D(256, 512, kernel_size=(1,), stride=(1,))
          (prelu1): PReLU(num_parameters=1)
          (lnorm1): GlobalChannelLayerNorm(512, eps=1e-05, elementwise_affine=True)
          (shuffgroupconv): Conv1d(512, 256, kernel_size=(3,), stride=(1,), padding=(128,), dilation=(128,), groups=128)
          (tanh1): Tanh()
          (dconv): Conv1d(512, 512, kernel_size=(3,), stride=(1,), padding=(128,), dilation=(128,), groups=512)
          (shuffgroup): ChannelShuffle()
          (conv1x1_2): Conv1D(512, 256, kernel_size=(1,), stride=(1,))
          (sigmoid1): Sigmoid()
          (prelu2): PReLU(num_parameters=1)
          (lnorm2): GlobalChannelLayerNorm(512, eps=1e-05, elementwise_affine=True)
          (sconv): Conv1d(512, 256, kernel_size=(1,), stride=(1,))
          (skip_out): Conv1d(512, 256, kernel_size=(1,), stride=(1,))
        )
      )
    )
    (1): Sequential(
      (0): Sequential(
        (0): Conv1DBlock(
          (conv1x1): Conv1D(256, 512, kernel_size=(1,), stride=(1,))
          (prelu1): PReLU(num_parameters=1)
          (lnorm1): GlobalChannelLayerNorm(512, eps=1e-05, elementwise_affine=True)
          (shuffgroupconv): Conv1d(512, 256, kernel_size=(3,), stride=(1,), padding=(1,))
          (tanh1): Tanh()
          (dconv): Conv1d(512, 512, kernel_size=(3,), stride=(1,), padding=(1,), groups=512)
          (shuffgroup): ChannelShuffle()
          (conv1x1_2): Conv1D(512, 256, kernel_size=(1,), stride=(1,))
          (sigmoid1): Sigmoid()
          (prelu2): PReLU(num_parameters=1)
          (lnorm2): GlobalChannelLayerNorm(512, eps=1e-05, elementwise_affine=True)
          (sconv): Conv1d(512, 256, kernel_size=(1,), stride=(1,))
          (skip_out): Conv1d(512, 256, kernel_size=(1,), stride=(1,))
        )
        (1): Conv1DBlock(
          (conv1x1): Conv1D(256, 512, kernel_size=(1,), stride=(1,))
          (prelu1): PReLU(num_parameters=1)
          (lnorm1): GlobalChannelLayerNorm(512, eps=1e-05, elementwise_affine=True)
          (shuffgroupconv): Conv1d(512, 256, kernel_size=(3,), stride=(1,), padding=(2,), dilation=(2,), groups=2)
          (tanh1): Tanh()
          (dconv): Conv1d(512, 512, kernel_size=(3,), stride=(1,), padding=(2,), dilation=(2,), groups=512)
          (shuffgroup): ChannelShuffle()
          (conv1x1_2): Conv1D(512, 256, kernel_size=(1,), stride=(1,))
          (sigmoid1): Sigmoid()
          (prelu2): PReLU(num_parameters=1)
          (lnorm2): GlobalChannelLayerNorm(512, eps=1e-05, elementwise_affine=True)
          (sconv): Conv1d(512, 256, kernel_size=(1,), stride=(1,))
          (skip_out): Conv1d(512, 256, kernel_size=(1,), stride=(1,))
        )
        (2): Conv1DBlock(
          (conv1x1): Conv1D(256, 512, kernel_size=(1,), stride=(1,))
          (prelu1): PReLU(num_parameters=1)
          (lnorm1): GlobalChannelLayerNorm(512, eps=1e-05, elementwise_affine=True)
          (shuffgroupconv): Conv1d(512, 256, kernel_size=(3,), stride=(1,), padding=(4,), dilation=(4,), groups=4)
          (tanh1): Tanh()
          (dconv): Conv1d(512, 512, kernel_size=(3,), stride=(1,), padding=(4,), dilation=(4,), groups=512)
          (shuffgroup): ChannelShuffle()
          (conv1x1_2): Conv1D(512, 256, kernel_size=(1,), stride=(1,))
          (sigmoid1): Sigmoid()
          (prelu2): PReLU(num_parameters=1)
          (lnorm2): GlobalChannelLayerNorm(512, eps=1e-05, elementwise_affine=True)
          (sconv): Conv1d(512, 256, kernel_size=(1,), stride=(1,))
          (skip_out): Conv1d(512, 256, kernel_size=(1,), stride=(1,))
        )
        (3): Conv1DBlock(
          (conv1x1): Conv1D(256, 512, kernel_size=(1,), stride=(1,))
          (prelu1): PReLU(num_parameters=1)
          (lnorm1): GlobalChannelLayerNorm(512, eps=1e-05, elementwise_affine=True)
          (shuffgroupconv): Conv1d(512, 256, kernel_size=(3,), stride=(1,), padding=(8,), dilation=(8,), groups=8)
          (tanh1): Tanh()
          (dconv): Conv1d(512, 512, kernel_size=(3,), stride=(1,), padding=(8,), dilation=(8,), groups=512)
          (shuffgroup): ChannelShuffle()
          (conv1x1_2): Conv1D(512, 256, kernel_size=(1,), stride=(1,))
          (sigmoid1): Sigmoid()
          (prelu2): PReLU(num_parameters=1)
          (lnorm2): GlobalChannelLayerNorm(512, eps=1e-05, elementwise_affine=True)
          (sconv): Conv1d(512, 256, kernel_size=(1,), stride=(1,))
          (skip_out): Conv1d(512, 256, kernel_size=(1,), stride=(1,))
        )
        (4): Conv1DBlock(
          (conv1x1): Conv1D(256, 512, kernel_size=(1,), stride=(1,))
          (prelu1): PReLU(num_parameters=1)
          (lnorm1): GlobalChannelLayerNorm(512, eps=1e-05, elementwise_affine=True)
          (shuffgroupconv): Conv1d(512, 256, kernel_size=(3,), stride=(1,), padding=(16,), dilation=(16,), groups=16)
          (tanh1): Tanh()
          (dconv): Conv1d(512, 512, kernel_size=(3,), stride=(1,), padding=(16,), dilation=(16,), groups=512)
          (shuffgroup): ChannelShuffle()
          (conv1x1_2): Conv1D(512, 256, kernel_size=(1,), stride=(1,))
          (sigmoid1): Sigmoid()
          (prelu2): PReLU(num_parameters=1)
          (lnorm2): GlobalChannelLayerNorm(512, eps=1e-05, elementwise_affine=True)
          (sconv): Conv1d(512, 256, kernel_size=(1,), stride=(1,))
          (skip_out): Conv1d(512, 256, kernel_size=(1,), stride=(1,))
        )
        (5): Conv1DBlock(
          (conv1x1): Conv1D(256, 512, kernel_size=(1,), stride=(1,))
          (prelu1): PReLU(num_parameters=1)
          (lnorm1): GlobalChannelLayerNorm(512, eps=1e-05, elementwise_affine=True)
          (shuffgroupconv): Conv1d(512, 256, kernel_size=(3,), stride=(1,), padding=(32,), dilation=(32,), groups=32)
          (tanh1): Tanh()
          (dconv): Conv1d(512, 512, kernel_size=(3,), stride=(1,), padding=(32,), dilation=(32,), groups=512)
          (shuffgroup): ChannelShuffle()
          (conv1x1_2): Conv1D(512, 256, kernel_size=(1,), stride=(1,))
          (sigmoid1): Sigmoid()
          (prelu2): PReLU(num_parameters=1)
          (lnorm2): GlobalChannelLayerNorm(512, eps=1e-05, elementwise_affine=True)
          (sconv): Conv1d(512, 256, kernel_size=(1,), stride=(1,))
          (skip_out): Conv1d(512, 256, kernel_size=(1,), stride=(1,))
        )
        (6): Conv1DBlock(
          (conv1x1): Conv1D(256, 512, kernel_size=(1,), stride=(1,))
          (prelu1): PReLU(num_parameters=1)
          (lnorm1): GlobalChannelLayerNorm(512, eps=1e-05, elementwise_affine=True)
          (shuffgroupconv): Conv1d(512, 256, kernel_size=(3,), stride=(1,), padding=(64,), dilation=(64,), groups=64)
          (tanh1): Tanh()
          (dconv): Conv1d(512, 512, kernel_size=(3,), stride=(1,), padding=(64,), dilation=(64,), groups=512)
          (shuffgroup): ChannelShuffle()
          (conv1x1_2): Conv1D(512, 256, kernel_size=(1,), stride=(1,))
          (sigmoid1): Sigmoid()
          (prelu2): PReLU(num_parameters=1)
          (lnorm2): GlobalChannelLayerNorm(512, eps=1e-05, elementwise_affine=True)
          (sconv): Conv1d(512, 256, kernel_size=(1,), stride=(1,))
          (skip_out): Conv1d(512, 256, kernel_size=(1,), stride=(1,))
        )
        (7): Conv1DBlock(
          (conv1x1): Conv1D(256, 512, kernel_size=(1,), stride=(1,))
          (prelu1): PReLU(num_parameters=1)
          (lnorm1): GlobalChannelLayerNorm(512, eps=1e-05, elementwise_affine=True)
          (shuffgroupconv): Conv1d(512, 256, kernel_size=(3,), stride=(1,), padding=(128,), dilation=(128,), groups=128)
          (tanh1): Tanh()
          (dconv): Conv1d(512, 512, kernel_size=(3,), stride=(1,), padding=(128,), dilation=(128,), groups=512)
          (shuffgroup): ChannelShuffle()
          (conv1x1_2): Conv1D(512, 256, kernel_size=(1,), stride=(1,))
          (sigmoid1): Sigmoid()
          (prelu2): PReLU(num_parameters=1)
          (lnorm2): GlobalChannelLayerNorm(512, eps=1e-05, elementwise_affine=True)
          (sconv): Conv1d(512, 256, kernel_size=(1,), stride=(1,))
          (skip_out): Conv1d(512, 256, kernel_size=(1,), stride=(1,))
        )
      )
      (1): Sequential(
        (0): Conv1DBlock(
          (conv1x1): Conv1D(256, 512, kernel_size=(1,), stride=(1,))
          (prelu1): PReLU(num_parameters=1)
          (lnorm1): GlobalChannelLayerNorm(512, eps=1e-05, elementwise_affine=True)
          (shuffgroupconv): Conv1d(512, 256, kernel_size=(3,), stride=(1,), padding=(1,))
          (tanh1): Tanh()
          (dconv): Conv1d(512, 512, kernel_size=(3,), stride=(1,), padding=(1,), groups=512)
          (shuffgroup): ChannelShuffle()
          (conv1x1_2): Conv1D(512, 256, kernel_size=(1,), stride=(1,))
          (sigmoid1): Sigmoid()
          (prelu2): PReLU(num_parameters=1)
          (lnorm2): GlobalChannelLayerNorm(512, eps=1e-05, elementwise_affine=True)
          (sconv): Conv1d(512, 256, kernel_size=(1,), stride=(1,))
          (skip_out): Conv1d(512, 256, kernel_size=(1,), stride=(1,))
        )
        (1): Conv1DBlock(
          (conv1x1): Conv1D(256, 512, kernel_size=(1,), stride=(1,))
          (prelu1): PReLU(num_parameters=1)
          (lnorm1): GlobalChannelLayerNorm(512, eps=1e-05, elementwise_affine=True)
          (shuffgroupconv): Conv1d(512, 256, kernel_size=(3,), stride=(1,), padding=(2,), dilation=(2,), groups=2)
          (tanh1): Tanh()
          (dconv): Conv1d(512, 512, kernel_size=(3,), stride=(1,), padding=(2,), dilation=(2,), groups=512)
          (shuffgroup): ChannelShuffle()
          (conv1x1_2): Conv1D(512, 256, kernel_size=(1,), stride=(1,))
          (sigmoid1): Sigmoid()
          (prelu2): PReLU(num_parameters=1)
          (lnorm2): GlobalChannelLayerNorm(512, eps=1e-05, elementwise_affine=True)
          (sconv): Conv1d(512, 256, kernel_size=(1,), stride=(1,))
          (skip_out): Conv1d(512, 256, kernel_size=(1,), stride=(1,))
        )
        (2): Conv1DBlock(
          (conv1x1): Conv1D(256, 512, kernel_size=(1,), stride=(1,))
          (prelu1): PReLU(num_parameters=1)
          (lnorm1): GlobalChannelLayerNorm(512, eps=1e-05, elementwise_affine=True)
          (shuffgroupconv): Conv1d(512, 256, kernel_size=(3,), stride=(1,), padding=(4,), dilation=(4,), groups=4)
          (tanh1): Tanh()
          (dconv): Conv1d(512, 512, kernel_size=(3,), stride=(1,), padding=(4,), dilation=(4,), groups=512)
          (shuffgroup): ChannelShuffle()
          (conv1x1_2): Conv1D(512, 256, kernel_size=(1,), stride=(1,))
          (sigmoid1): Sigmoid()
          (prelu2): PReLU(num_parameters=1)
          (lnorm2): GlobalChannelLayerNorm(512, eps=1e-05, elementwise_affine=True)
          (sconv): Conv1d(512, 256, kernel_size=(1,), stride=(1,))
          (skip_out): Conv1d(512, 256, kernel_size=(1,), stride=(1,))
        )
        (3): Conv1DBlock(
          (conv1x1): Conv1D(256, 512, kernel_size=(1,), stride=(1,))
          (prelu1): PReLU(num_parameters=1)
          (lnorm1): GlobalChannelLayerNorm(512, eps=1e-05, elementwise_affine=True)
          (shuffgroupconv): Conv1d(512, 256, kernel_size=(3,), stride=(1,), padding=(8,), dilation=(8,), groups=8)
          (tanh1): Tanh()
          (dconv): Conv1d(512, 512, kernel_size=(3,), stride=(1,), padding=(8,), dilation=(8,), groups=512)
          (shuffgroup): ChannelShuffle()
          (conv1x1_2): Conv1D(512, 256, kernel_size=(1,), stride=(1,))
          (sigmoid1): Sigmoid()
          (prelu2): PReLU(num_parameters=1)
          (lnorm2): GlobalChannelLayerNorm(512, eps=1e-05, elementwise_affine=True)
          (sconv): Conv1d(512, 256, kernel_size=(1,), stride=(1,))
          (skip_out): Conv1d(512, 256, kernel_size=(1,), stride=(1,))
        )
        (4): Conv1DBlock(
          (conv1x1): Conv1D(256, 512, kernel_size=(1,), stride=(1,))
          (prelu1): PReLU(num_parameters=1)
          (lnorm1): GlobalChannelLayerNorm(512, eps=1e-05, elementwise_affine=True)
          (shuffgroupconv): Conv1d(512, 256, kernel_size=(3,), stride=(1,), padding=(16,), dilation=(16,), groups=16)
          (tanh1): Tanh()
          (dconv): Conv1d(512, 512, kernel_size=(3,), stride=(1,), padding=(16,), dilation=(16,), groups=512)
          (shuffgroup): ChannelShuffle()
          (conv1x1_2): Conv1D(512, 256, kernel_size=(1,), stride=(1,))
          (sigmoid1): Sigmoid()
          (prelu2): PReLU(num_parameters=1)
          (lnorm2): GlobalChannelLayerNorm(512, eps=1e-05, elementwise_affine=True)
          (sconv): Conv1d(512, 256, kernel_size=(1,), stride=(1,))
          (skip_out): Conv1d(512, 256, kernel_size=(1,), stride=(1,))
        )
        (5): Conv1DBlock(
          (conv1x1): Conv1D(256, 512, kernel_size=(1,), stride=(1,))
          (prelu1): PReLU(num_parameters=1)
          (lnorm1): GlobalChannelLayerNorm(512, eps=1e-05, elementwise_affine=True)
          (shuffgroupconv): Conv1d(512, 256, kernel_size=(3,), stride=(1,), padding=(32,), dilation=(32,), groups=32)
          (tanh1): Tanh()
          (dconv): Conv1d(512, 512, kernel_size=(3,), stride=(1,), padding=(32,), dilation=(32,), groups=512)
          (shuffgroup): ChannelShuffle()
          (conv1x1_2): Conv1D(512, 256, kernel_size=(1,), stride=(1,))
          (sigmoid1): Sigmoid()
          (prelu2): PReLU(num_parameters=1)
          (lnorm2): GlobalChannelLayerNorm(512, eps=1e-05, elementwise_affine=True)
          (sconv): Conv1d(512, 256, kernel_size=(1,), stride=(1,))
          (skip_out): Conv1d(512, 256, kernel_size=(1,), stride=(1,))
        )
        (6): Conv1DBlock(
          (conv1x1): Conv1D(256, 512, kernel_size=(1,), stride=(1,))
          (prelu1): PReLU(num_parameters=1)
          (lnorm1): GlobalChannelLayerNorm(512, eps=1e-05, elementwise_affine=True)
          (shuffgroupconv): Conv1d(512, 256, kernel_size=(3,), stride=(1,), padding=(64,), dilation=(64,), groups=64)
          (tanh1): Tanh()
          (dconv): Conv1d(512, 512, kernel_size=(3,), stride=(1,), padding=(64,), dilation=(64,), groups=512)
          (shuffgroup): ChannelShuffle()
          (conv1x1_2): Conv1D(512, 256, kernel_size=(1,), stride=(1,))
          (sigmoid1): Sigmoid()
          (prelu2): PReLU(num_parameters=1)
          (lnorm2): GlobalChannelLayerNorm(512, eps=1e-05, elementwise_affine=True)
          (sconv): Conv1d(512, 256, kernel_size=(1,), stride=(1,))
          (skip_out): Conv1d(512, 256, kernel_size=(1,), stride=(1,))
        )
        (7): Conv1DBlock(
          (conv1x1): Conv1D(256, 512, kernel_size=(1,), stride=(1,))
          (prelu1): PReLU(num_parameters=1)
          (lnorm1): GlobalChannelLayerNorm(512, eps=1e-05, elementwise_affine=True)
          (shuffgroupconv): Conv1d(512, 256, kernel_size=(3,), stride=(1,), padding=(128,), dilation=(128,), groups=128)
          (tanh1): Tanh()
          (dconv): Conv1d(512, 512, kernel_size=(3,), stride=(1,), padding=(128,), dilation=(128,), groups=512)
          (shuffgroup): ChannelShuffle()
          (conv1x1_2): Conv1D(512, 256, kernel_size=(1,), stride=(1,))
          (sigmoid1): Sigmoid()
          (prelu2): PReLU(num_parameters=1)
          (lnorm2): GlobalChannelLayerNorm(512, eps=1e-05, elementwise_affine=True)
          (sconv): Conv1d(512, 256, kernel_size=(1,), stride=(1,))
          (skip_out): Conv1d(512, 256, kernel_size=(1,), stride=(1,))
        )
      )
    )
  )
  (fc_scale): Linear(in_features=256, out_features=4, bias=True)
  (fc_shift): Linear(in_features=256, out_features=4, bias=True)
  (PRelu): PReLU(num_parameters=1)
  (mask): Conv1D(256, 1024, kernel_size=(1,), stride=(1,))
  (decoder_1d): ConvTrans1D(512, 1, kernel_size=(16,), stride=(8,))
)
2026-05-26 18:26:39 [D:\denoiser-main\trainer.py:154 - INFO ] nnet conf:
{'L': 16, 'N': 512, 'X': 8, 'R': 2, 'B': 256, 'Sc': 256, 'H': 512, 'P': 3, 'norm': 'gLN', 'num_spks': 2, 'non_linear': 'sigmoid'}
…
